road_detector/weights_l0.1196_vl0.1484.pth (torch, 460314 bytes, 22 tensors)

weight f4 [3]
0.8348165 0.8400783 0.7905867
00000000: 89b6 553f 5f0f 573f e463 4a3f

bias f4 [3]
5.4362204e-09 -2.6922274e-08 -3.3544028e-09
00000000: 80c9 ba31 b542 e7b2 4783 66b1

running_mean f4 [3]
0.39942935 0.3676173 0.30530992
00000000: 0182 cc3e 5638 bc3e 9551 9c3e

running_var f4 [3]
0.022631573 0.018936163 0.013427474
00000000: d965 b93c 0320 9b3c e8fe 5b3c

weight f4 [16, 3, 5, 5]
-0.1636906 -0.15689768 -0.019560944 -0.14265978 -0.06955749 -0.07598343 -0.06278412 -0.10825626
-0.17222218 -0.08300667 0.050916772 -0.06680297 0.0016214089 0.052195974 -0.009931256 0.10683945
0.09894336 0.090756014 0.029580565 0.095877044 0.2023476 0.13128193 0.09222434 0.15953472
0.036275618 -0.14283991 -0.039708536 -0.051435817 0.005369456 -0.14687727 -0.0033195326 -0.051335108
-0.06118757 -0.12689812 0.02275781 0.06822149 -0.007309746 0.041546978 -0.0208428 -0.033056237
-0.04344818 0.00011099018 0.11234898 0.047245875 0.020343658 0.08997341 0.036234275 0.07954675
0.060840983 0.07914693 -0.073362224 0.027726779 -0.07524013 -0.019472385 0.051818267 -0.063369706
0.028989105 -0.043984056 -0.05471727 0.006947821 0.04009873 -0.021326203 -0.055887025 0.11816821
0.07233943 -0.008740063 -0.004614768 -0.026080031 0.06616081 0.09801313 -0.021598712 -0.024778081
0.012335719 -0.006737516 -0.03129887 0.09224545 0.029985325 0.0075694914 0.10763291 0.039594695
0.065240264 0.0012396735 0.082812615 0.016821064 -0.03814036 -0.07684556 0.032930627 -0.03466467
0.09592288 -0.00953971 -0.079470515 -0.08942018 0.010794134 0.01832419 -0.05613792 -0.068407156
-0.09227232 -0.05070453 -0.00022423951 -0.043745853 0.0012440435 0.044099554 0.062090583 -0.0070456485
0.08552424 -0.026752964 -0.023987344 0.07841011 0.10167744 0.13683791 -0.073453 0.05660835
-0.022306602 0.082358636 0.050372303 -0.06175543 0.017072642 0.052514233 0.03417734 -0.03069503
0.018079624 0.042542804 0.047419358 -0.10259433 -0.013580105 -0.04218806 0.020499552 0.099962644
0.08697974 0.05120949 0.011595975 -0.0031931743 0.0926223 0.048477355 0.035505082 -0.08948517
0.071113415 -0.05824205 0.058071014 0.010354735 0.059960883 -0.018396271 0.0012611154 -0.12341304
0.05059773 -0.055761702 -0.033511244 -0.08049578 -0.1004817 0.039173324 -0.051962066 0.063650966
0.05079987 0.102244064 -0.029969359 -0.004269167 0.0037612044 -0.06268631 0.018372403 -0.060039677
0.08277396 -0.039440654 -0.027259694 -0.0009314874 -0.029239267 -0.097505115 -0.055862345 -0.09580566
0.086545154 -0.084202826 -0.11447971 -0.059571788 -0.10087192 0.011518142 -0.025732046 -0.083353795
0.03658021 0.033649243 0.012193444 -0.06831088 -0.05647338 -0.04805529 -0.021091904 -0.043697428
0.02739309 -0.07377924 -0.05599548 -0.013650681 -0.09204721 -0.04350818 0.017090362 0.07671994
0.011799833 -0.07764991 0.0802876 -0.1175326 -0.10090363 -0.074713364 -0.028776009 0.054016612
0.042240135 0.0043212622 0.03591514 -0.073513 0.030431414 0.06858779 0.025134185 -0.04888629
0.035234667 0.09776542 -0.001799772 0.11362887 0.09761831 0.008606841 -0.028285893 -0.005188873
0.11552901 -0.024639856 -0.05628909 0.11081777 -0.0824081 0.004178576 -0.024027705 0.09278193
-0.028278867 -0.0031416162 0.05543389 -0.11488537 0.00655966 -0.051959187 0.09917408 -0.049093924
0.06376532 -0.1133002 0.030594956 -0.0652668 -0.08041898 0.054098215 -0.034977306 -0.048404895
0.09423906 -0.009832346 -0.062184393 -0.0054524518 0.010034265 0.00034277566 -0.0046167304 0.15553904
0.1647142 0.022592226 -0.0082157785 -0.017798083 -0.045274492 -0.03462962 0.0054837596 -0.037652507
00000000: 829e 27be c9a9 20be 463e a0bc 6815 12be
00000010: 2874 8ebd 339d 9bbd f694 80bd 75b5 ddbd
00000020: 035b 30be 67ff a9bd 1b8e 503d ffcf 88bd
00000030: 7485 d43a 72cb 553d b5b6 22bc a4ce da3d
00000040: d1a2 ca3d 4ade b93d f152 f23c 2f5b c43d
00000050: 3634 4f3e c56e 063e 1de0 bc3d 125d 233e
00000060: be95 143d a044 12be 6ba5 22bd 5dae 52bd
00000070: 43f2 af3b ff66 16be 848c 59bb c344 52bd
00000080: d19f 7abd 95f1 01be 966e ba3c b5b7 8b3d
00000090: 9886 efbb 2a2d 2a3d 85be aabc fa65 07bd
000000a0: b8f6 31bd 66c3 e838 3917 e63d e484 413d
000000b0: bea7 a63c fb43 b83d 646a 143d 68e9 a23d
000000c0: 6534 793d c917 a23d ef3e 96bd 4523 e33c
000000d0: 7f17 9abd 8d84 9fbc 643f 543d fac7 81bd
000000e0: 8f7a ed3c a028 34bd 371f 60bd 8caa e33b
000000f0: 913e 243d 4ab4 aebc cbe9 64bd 2d02 f23d
00000100: b226 943d 7b32 0fbc 7b37 97bb caa5 d5bc
00000110: 527f 873d 1cbb c83d c8ef b0bc 67fb cabc
00000120: c11b 4a3c 61c6 dcbb 3e33 00bd 2feb bc3d
00000130: c9a3 f53c 7f09 f83b a56e dc3d 0c2e 223d
00000140: b09c 853d 8a7c a23a a999 a93d 54cc 893c
00000150: 1139 1cbd 3461 9dbd 44e2 063d 8afc 0dbd
00000160: 3773 c43d 724c 1cbc 70c1 a2bd ed21 b7bd
00000170: e1d9 303c 9d1c 963c e0f0 65bd 0d19 8cbd
00000180: 45f9 bcbd 8eaf 4fbd d621 6bb9 da2e 33bd
00000190: 2c0f a33a bca1 343d b252 7e3d 2fdf e6bb
000001a0: 5527 af3d 0829 dbbc 1b81 c4bc 7b95 a03d
000001b0: 433c d03d 3d1f 0c3e 876e 96bd 28de 673d
000001c0: 56bc b6bc a5ab a83d 3053 4e3d 43f3 7cbd
000001d0: eddb 8b3c 2a19 573d 8afd 0b3d 2574 fbbc
000001e0: b81b 943c 5d41 2e3d cd3a 423d fa1c d2bd
000001f0: 177f 5ebc 63cd 2cbd adee a73c 37b9 cc3d
00000200: 6f22 b23d 0bc1 513d 0bfd 3d3c 9344 51bb
00000210: c3b0 bd3d 3190 463d c76d 113d 0044 b7bd
00000220: e9a3 913d 378f 6ebd dfdb 6d3d e8a6 293c
00000230: 8b99 753d c7b3 96bc 034c a53a fabf fcbd
00000240: 913f 4f3d 6266 64bd 1643 09bd f9da a4bd
00000250: 59c9 cdbd 3574 203d 2dd6 54bd 705b 823d
00000260: 8613 503d 5665 d13d 4d82 f5bc 5ee4 8bbb
00000270: 8a7e 763b ae61 80bd b981 963c 2aec 75bd
00000280: 6585 a93d 868c 21bd b94f dfbc 102f 74ba
00000290: 3087 efbc c3b0 c7bd eacf 64bd c235 c4bd
000002a0: 963e b13d 8872 acbd 5774 eabd 8c01 74bd
000002b0: f095 cebd 97b6 3c3c 03cc d2bc 65b5 aabd
000002c0: 21d5 153d cad3 093d 03c7 473c 93e6 8bbd
000002d0: a250 67bd a0d5 44bd eec8 acbc 13fc 32bd
000002e0: 7967 e03c 9219 97bd 845b 65bd 1ba7 5fbc
000002f0: 3f83 bcbd a235 32bd 1601 8c3c 581f 9d3d
00000300: 1654 413c ea06 9fbd d36d a43d efb4 f0bd
00000310: 90a6 cebd 5203 99bd aabb ebbc 8640 5d3d
00000320: fe03 2d3d 6099 8d3b c11b 133d fc8d 96bd
00000330: 4d4b f93c c177 8c3d 35e6 cd3c fe3c 48bd
00000340: 3a52 103d 3d39 c83d 54e6 ebba 41b6 e83d
00000350: 1cec c73d b503 0d3c d1b7 e7bc 6c07 aabb
00000360: 799a ec3d 86d9 c9bc 648f 66bd 6df4 e23d
00000370: 94c5 a8bd 70ec 883b c0d5 c4bc 7404 be3d
00000380: 15a9 e7bc 93e3 4dbb a60e 633d 0549 ebbd
00000390: 6bf2 d63b 28d3 54bd c81b cb3d b616 49bd
000003a0: 6497 823d ef09 e8bd 46a2 fa3c 9aaa 85bd
000003b0: b5b2 a4bd 1796 5d3d 5d44 0fbd 3644 46bd
000003c0: 6900 c13d d917 21bc 10b5 7ebd 7baa b2bb
000003d0: c266 243c 92b6 b339 f147 97bb a045 1f3e
000003e0: d7aa 283e 5513 b93c 799b 06bc 49cd 91bc
000003f0: bf71 39bd cad7 0dbd 1cb1 b33b 8439 1abd

bias f4 [16]
-0.0680088 0.041686684 -0.06581397 -0.051066265 -0.07094718 -0.093049295 0.066059455 -0.01930315
0.037515588 0.08219299 -0.084353276 -0.03209646 0.06178574 -0.016286878 -0.07794323 -0.0060668443
00000000: 3348 8bbd a8bf 2a3d 7ac9 86bd dc2a 51bd
00000010: c14c 91bd a190 bebd 2e4a 873d a421 9ebc
00000020: f2a9 193d cc54 a83d 69c1 acbd 9477 03bd
00000030: 0b13 7d3d 0f6c 85bc b3a0 9fbd 61cc c6bb

weight f4 [16]
0.837342 0.76891243 0.7966877 0.8127537 0.81196356 0.84412944 0.7888178 0.79763854
0.80201405 0.8146008 0.80122197 0.7974119 0.853147 0.8251104 0.8028238 0.82539415
00000000: 0c5c 563f 72d7 443f baf3 4b3f a010 503f
00000010: d8dc 4f3f de18 583f f7ef 493f 0a32 4c3f
00000020: cb50 4d3f ae89 503f e21c 4d3f 3023 4c3f
00000030: d767 5a3f 6f3a 533f dc85 4d3f 084d 533f

bias f4 [16]
-0.23843959 -0.046107423 -0.14853746 -0.106691234 -0.049992863 0.013267247 -0.0045282906 -0.08859267
-0.055298913 -0.087747745 0.07809712 -0.039169736 -0.089538954 -0.13376814 0.015008412 0.009479399
00000000: 8229 74be 23db 3cbd 341a 18be ef80 dabd
00000010: 51c5 4cbd de5e 593c 0e62 94bb 1370 b5bd
00000020: 1d81 62bd 17b5 b3bd 62f1 9f3d 7270 20bd
00000030: 3360 b7bd 84fa 08be d8e5 753c 7b4f 1b3c

running_mean f4 [16]
-0.07232515 0.04228967 -0.065239884 -0.05097492 -0.0721195 -0.09391916 0.065141164 -0.01823599
0.03727117 0.08253441 -0.08608549 -0.034179732 0.06408484 -0.01826606 -0.07360976 -0.0068400973
00000000: 351f 94bd ef37 2d3d 7d9c 85bd 14cb 50bd
00000010: 63b3 93bd b058 c0bd bb68 853d a563 95bc
00000020: a8a9 183d cd07 a93d 974d b0bd 0c00 0cbd
00000030: ea3e 833d b4a2 95bc b7c0 96bd e522 e0bb

running_var f4 [16]
0.27812493 0.26943666 0.8267885 2.0701442 0.36816671 0.5796425 0.5510669 0.8647559
0.7519145 1.219812 0.1465776 5.608982 0.52728844 0.59287274 0.12796487 1.338027
00000000: 6466 8e3e 9af3 893e 69a8 533f 3e7d 0440
00000010: 5980 bc3e 7363 143f b812 0d3f a560 5d3f
00000020: 787d 403f cd22 9c3f 7018 163e c87c b340
00000030: 60fc 063f 82c6 173f 3909 033e 7844 ab3f

weight f4 [16, 16, 5, 5]
0.003040377 0.04200087 -0.025144564 -0.024190653 0.03580234 -0.00057282404 0.009051354 0.0065482487
0.0060857837 0.02057993 0.015176161 -0.026325446 -0.019944148 -0.015585522 0.03731645 0.030366708
0.06516293 0.074812695 0.022286043 0.07473784 0.08037904 0.028834611 0.015833482 0.09108236
0.03405626 -0.02179063 -0.009797744 0.026889129 -0.021361431 0.040091246 0.02555322 -0.020064352
-0.01238609 0.019967102 -0.014420817 0.05277471 0.036853623 0.02740251 0.04908209 0.00025083768
0.056663077 0.01894574 0.013683529 0.020787066 0.035459604 -0.01524102 -0.018526496 0.013004098
0.05041258 0.010326242 0.03890627 -0.013713885 -0.033416316 0.033235915 0.035157755 -0.025356324
-0.031900045 -0.022100013 0.036524445 -0.005686033 -0.006782955 0.00015701189 -0.033336535 0.034409963
-0.028643455 -0.014425558 -0.011540899 -0.018249094 -0.032405417 0.01853602 -0.028839352 -0.008269249
0.03453025 0.0017809962 -0.0029973735 -0.019743247 -0.01524961 0.02070077 -0.0035173357 0.019945364
0.047439497 0.011579349 -0.028628921 -0.031130616 -0.022629056 0.00842667 -0.0005342417 0.037285782
0.03332199 -0.02502872 0.0338093 0.051517367 0.027614918 0.033533856 0.007162241 0.020263955
0.012863198 0.04840745 0.031867772 -0.02061633 -0.050508525 -0.030733785 -0.042956717 0.0062477444
-0.047273163 -0.015583192 -0.001856063 0.0064577586 0.013070914 -0.0015180964 -0.036864225 -0.026916124
-0.021455344 0.01380971 0.0010267472 -0.044013824 -0.03616235 -0.009069538 0.0038085026 0.0133460695
-0.04186802 -0.030348046 -0.030360151 -0.021575326 -0.005899752 0.03137989 0.045732614 0.016172575
-0.008321832 0.032793112 0.032777857 0.045206014 -0.00012557818 0.047313824 0.0035298362 -0.0028112286
0.001971787 0.039820246 -0.01573733 0.0648682 0.0041673295 -0.024912955 -0.009811923 0.018134369
0.055404194 0.017915057 0.03271552 -0.013213973 0.018903831 0.03424133 0.009578009 -0.0065403003
0.038283274 0.03072138 -0.0027109096 0.04206438 0.010451635 -0.021256518 0.028169466 0.04967199
0.019776134 0.045869526 -0.01359023 -0.014829238 -0.003517288 0.043798078 0.04015218 0.005025498
0.04584511 -0.00054886594 0.023958646 -0.014762847 0.018029401 0.032388147 0.018058913 -0.0122774225
-0.051185966 -0.059757553 -0.026595378 -0.010309335 -0.011368164 -0.025441647 -0.00758093 -0.06163212
-0.057108913 -0.028018003 -0.06643754 -0.009967212 -0.03685584 -0.02104826 -0.058050133 -0.06729653
-0.012642991 -0.0418627 -0.007834776 -0.03156624 -0.017672587 -0.019500496 -0.05627176 -0.04396402
0.013354249 0.0034011453 -0.012310057 0.005506215 0.0012566902 -0.013989639 0.038035337 0.018497871
0.027837392 0.045292687 -0.037409995 -0.031268235 -0.014474786 -0.0024464352 0.034256782 -0.021404332
-0.02343329 0.014567932 -0.027698873 -0.032202974 -0.0019236979 -0.018397076 -0.016423807 0.011996377
-0.008842539 0.019046484 0.017597504 0.0073405216 -0.013161816 -0.03133457 -0.0048136828 0.033374075
0.017039191 -0.03592376 0.020433204 0.009654272 -0.04890905 0.008989963 -0.024844212 0.02419973
0.02865994 0.01939355 -0.04474077 0.019078718 -0.030269947 0.0050025145 0.021104164 -0.0019202781
0.009849952 -0.047039162 0.021385096 0.040503453 -0.017048966 0.05759606 0.01696795 -0.01560655
00000000: 1041 473b 1b09 2c3d f9fb cdbc 7a2b c6bc
00000010: 79a5 123d 9229 16ba 214c 143c b192 d63b
00000020: 416b c73b 3e97 a83c 6fa5 783c 76a8 d7bc
00000030: e961 a3bc 6b5a 7fbc 22d9 183d 9ac3 f83c
00000040: 2474 853d 6637 993d 3891 b63c 2710 993d
00000050: c49d a43d 9036 ec3c 38b5 813c 6389 ba3d
00000060: 947e 0b3d 4382 b2bc b886 20bc 9746 dc3c
00000070: 2bfe aebc b836 243d fd54 d13c ff5d a4bc
00000080: 07ef 4abc 0c92 a33c 4a45 6cbc 4b2a 583d
00000090: d3f3 163d 3b7b e03c 4d0a 493d dd82 8339
000000a0: 8b17 683d 1934 9b3c e130 603c a349 aa3c
000000b0: 173e 113d 79b5 79bc e1c4 97bc 240f 553c
000000c0: 6c7d 4e3d 662f 293c 2e5c 1f3d 34b0 60bc
000000d0: 8cdf 08bd 6222 083d 9401 103d 11b8 cfbc
000000e0: 9fa9 02bd 160b b5bc a89a 153d e751 babb
000000f0: 8d43 debb 8fa3 2439 e48b 08bd 76f1 0c3d
00000100: aea5 eabc 2d59 6cbc 0a16 3dbc 207f 95bc
00000110: 8bbb 04bd dad8 973c 8140 ecbc bf7b 07bc
00000120: 976f 0d3d 5170 e93a 956f 44bb 97bc a1bc
00000130: 80d9 79bc a994 a93c 1a83 66bb 7664 a33c
00000140: eb4f 423d 4fb7 3d3c 3387 eabc a205 ffbc
00000150: 9260 b9bc 0410 0a3c 5b0c 0cba fab8 183d
00000160: a47c 083d 0809 cdbc 9f7b 0a3d e003 533d
00000170: ae38 e23c cc5a 093d 3bb1 ea3b 9800 a63c
00000180: 2ac0 523c e446 463d c887 023d 94e3 a8bc
00000190: 07e2 4ebd 6bc5 fbbc 62f3 2fbd e1b9 cc3b
000001a0: 81a1 41bd a550 7fbc 2447 f3ba 9b9b d33b
000001b0: 6327 563c ddfa c6ba f1fe 16bd 347f dcbc
000001c0: 1ec3 afbc 1f42 623c eb93 863a d747 34bd
000001d0: f91e 14bd 6698 14bc 1298 793b 79a9 5a3c
000001e0: cd7d 2bbd 779c f8bc dab5 f8bc bdbe b0bc
000001f0: b552 c1bb 3388 003d 1f52 3b3d 597c 843c
00000200: 4b58 08bc 1252 063d 1342 063d f129 393d
00000210: a3ad 03b9 24cc 413d d354 673b 973c 38bb
00000220: 1939 013b 8e1a 233d 93eb 80bc 9ed9 843d
00000230: 188e 883b 4116 ccbc 30c2 20bc 878e 943c
00000240: 82ef 623d 99c2 923c b600 063d 6b7f 58bc
00000250: 35dc 9a3c a340 0c3d 15ed 1c3c 0450 d6bb
00000260: ecce 1c3d 67ab fb3c 84a9 31bb b34b 2c3d
00000270: 563d 2b3c 2622 aebc a7c3 e63c db74 4b3d
00000280: 8f01 a23c afe1 3b3d 8ea9 5ebc 55f6 72bc
00000290: 4d82 66bb 9d65 333d 9d76 243d efac a43b
000002a0: 15c8 3b3d c5e1 0fba ec44 c43c dedf 71bc
000002b0: 65b2 933c 6fa9 043d 49f0 933c 3e27 49bc
000002c0: 60a8 51bd 56c4 74bd 8dde d9bc 7ce8 28bc
000002d0: 8941 3abc 006b d0bc 7369 f8bb f671 7cbd
000002e0: 09eb 69bd 0386 e5bc 6810 88bd 844d 23bc
000002f0: 26f6 16bd 676d acbc fac5 6dbd c3d2 89bd
00000300: 8c24 4fbc 3978 2bbd 6f5d 00bc 9a4b 01bd
00000310: 1ac6 90bc 81bf 9fbc 387d 66bd 9e13 34bd
00000320: c8cb 5a3c c0e5 5e3b 1fb0 49bc 7b6d b43b
00000330: 87b7 a43a cc34 65bc f1ca 1b3d d988 973c
00000340: 3e0b e43c d384 393d 393b 19bd 1f13 00bd
00000350: a727 6dbc 5f54 20bb d750 0c3d 2358 afbc
00000360: 2cf7 bfbc 56ae 6e3c bfe8 e2bc 44e7 03bd
00000370: 9724 fcba 77b5 96bc 388b 86bc 748c 443c
00000380: 4ce0 10bc 5f07 9c3c a428 903c c288 f03b
00000390: a8a4 57bc ae58 00bd 19bc 9dbb 41b3 083d
000003a0: c695 8b3c cb24 13bd 8963 a73c f42c 1e3c
000003b0: db54 48bd a34a 133c 1786 cbbc 833e c63c
000003c0: 40c8 ea3c 39df 9e3c 1942 37bd f94a 9c3c
000003d0: aef8 f7bc 22ec a33b a4e2 ac3c d7b1 fbba
000003e0: b161 213c 23ac 40bd cc2f af3c f3e6 253d
000003f0: 46aa 8bbc d9e9 6b3d 5f00 8b3c 9db2 7fbc

bias f4 [16]
0.027180735 0.010498092 0.026676508 0.008548421 0.025626468 -0.004320301 0.033906545 0.020739445
-0.019337628 0.010799742 0.022912543 -0.0057249023 -0.024041397 -0.008910038 0.02570183 -0.0027792447
00000000: 22aa de3c 3000 2c3c b188 da3c ad0e 0c3c
00000010: 99ee d13c 5091 8dbb 97e1 0a3d c5e5 a93c
00000020: f269 9ebc 67f1 303c 16b3 bb3c f697 bbbb
00000030: 77f2 c4bc 68fb 11bc a58c d23c fd23 36bb

weight f4 [16]
0.87167025 0.82657444 0.84044343 0.82783157 0.82540214 0.89515674 0.8345973 0.7989918
0.85006213 0.8427461 0.7746081 0.89505035 0.8504093 0.7855864 0.81611216 0.85453266
00000000: c825 5f3f 629a 533f 4d27 573f c5ec 533f
00000010: 8e4d 533f fe28 653f 2ba8 553f ba8a 4c3f
00000020: ac9d 593f 35be 573f b74c 463f 0522 653f
00000030: 6db4 593f 311c 493f baec 503f a7c2 5a3f

bias f4 [16]
-0.0019500818 0.064492844 -0.059510015 -0.09598004 -0.043694712 -0.07326786 -0.03351213 -0.034932744
-0.14348128 -0.025887642 -0.057422023 0.029865313 -0.12511711 -0.0693178 -0.010528325 -0.087660186
00000000: e399 ffba d314 843d c6c0 73bd 2f91 c4bd
00000010: 3af9 32bd 760d 96bd 0444 09bd a315 0fbd
00000020: c2ec 12be 5212 d4bc 5b33 6bbd 1aa8 f43c
00000030: b31e 00be 7ef6 8dbd ff7e 2cbc 2f87 b3bd

running_mean f4 [16]
0.49958295 -1.9921459 1.2121148 1.2882558 -0.042951122 1.477959 0.8182496 -0.21922776
-0.5505353 -0.8874612 0.8594533 -0.8031735 1.2344596 0.31520852 -0.5473265 0.22280435
00000000: 56c9 ff3e a3fe febf 9426 9b3f 91e5 a43f
00000010: 84ed 2fbd c32d bd3f ce78 513f 3e7d 60be
00000020: e2ef 0cbf a830 63bf 2205 5c3f c79c 4dbf
00000030: c602 9e3f 0363 a13e 971d 0cbf d326 643e

running_var f4 [16]
1.0488987 1.2694851 0.88293755 0.3901512 0.1558025 0.77976453 0.4718 0.33584368
0.577239 0.30626923 0.4108447 0.59031165 0.46420214 0.26042524 0.15407303 0.40686515
00000000: 5042 863f 7d7e a23f 3208 623f e6c1 c73e
00000010: b18a 1f3e a69e 473f c58f f13e b4f3 ab3e
00000020: efc5 133f 52cf 9c3e 3d5a d23e aa1e 173f
00000030: e7ab ed3e 7556 853e 52c5 1d3e a150 d03e

weight f4 [16, 16, 3, 3]
-0.018603524 -0.03283415 -0.06873237 0.027384449 0.058534723 -0.037024636 0.00034532993 0.026651682
-0.015520616 0.018195353 -0.015421351 0.0030093184 -0.014843224 -0.0538241 0.033079058 0.08900292
0.07648031 0.0048683737 0.013336293 0.08995695 0.06588082 0.062342662 0.05012557 0.098285004
0.06411177 0.0070292493 0.08773763 0.0067110825 0.02393641 -0.0002065411 0.02622079 0.07303687
0.08160643 0.040651754 0.08240701 0.084910706 0.0049774395 -0.06337591 -0.024265464 0.040493023
0.009528907 0.0023645335 0.05113829 -0.04543179 -0.014015886 0.078297175 0.021449015 0.08715353
-0.023686433 0.047711004 0.060814697 0.031477846 -0.0022740916 -0.03250318 -0.0068870857 0.0047879727
0.06135587 -0.023270097 0.05147054 -0.020513479 0.016538601 0.05311171 -0.05947053 0.03399677
-0.07330614 -0.03946924 -0.028978955 0.021469317 -0.008448967 0.0042474316 0.033248868 0.01822259
0.021383723 -0.07170006 -0.049677692 -0.08104396 -0.05154809 -0.055728946 -0.060281053 -0.06796652
-0.070854954 0.011446481 -0.036026273 0.05242619 -0.023509694 0.0043744254 -0.0070930724 -0.05203431
-0.0014592605 0.035769306 -0.006027445 -0.029537626 0.0012242129 -0.025927752 -0.047280535 0.020055681
0.05755974 0.03926164 -0.004484346 -0.014791173 0.045388114 -0.05523936 0.013349428 0.06709024
-0.0053335363 0.0051676244 -0.040518615 -0.067743495 0.031505838 0.015014136 -0.07930898 -0.032248113
-0.019696007 0.013601664 -0.05434589 0.05182291 0.041060418 -0.03651302 0.036684804 -0.0002311736
0.060221095 0.072044626 -0.0015742228 -0.051460978 0.027863486 0.024377026 0.045541316 -0.02852223
0.038939465 -0.0025382962 -0.010831997 0.07167144 -0.028982518 0.018626751 -0.0057328073 -0.031419974
-0.06461238 -0.03854723 -0.07680587 -0.08185459 -0.062165175 0.017062321 -0.06836456 -0.0020025538
0.07327341 0.05645957 0.044666972 0.0935387 -0.010098863 0.09039255 0.030132826 0.04736624
0.09678703 -0.0023238359 -0.027940845 0.085039616 0.04730136 0.030176131 0.027215967 0.040592402
-0.012873922 0.044532325 -0.013776727 -0.0049981824 -0.000106637846 0.031500064 -0.030282374 0.042027958
0.05283787 0.0693795 0.027663311 0.051448666 -0.051461305 0.027334027 -0.012283768 0.007011724
0.021440305 0.081143096 0.103086255 0.068775855 0.0713148 0.06240415 -0.03951046 0.040341005
-0.012384793 0.06784813 0.025682656 -0.007793987 0.0096355155 0.06741224 0.073681876 0.092704274
0.073816724 0.092269175 0.11098767 0.121183455 0.044336103 -0.0051369932 0.0058324323 -0.063620836
-0.06408097 -0.008725101 -0.051998746 -0.017703572 0.04503864 -0.02483642 0.02443973 0.0298676
-0.054223176 0.050078243 0.0665692 0.023767872 -0.027248371 0.026679942 -0.0066435947 -0.03232239
-0.059619572 0.03094873 -0.04668932 -0.09230416 0.0052356813 -0.059111085 -0.06422455 -0.0358714
-0.09619327 -0.05766441 -0.0076287743 -0.06691748 -0.07637147 -0.0689595 0.02936469 0.0011824844
-0.07304831 0.014202621 -0.040597152 0.028786916 -0.047531933 0.045191266 0.009443065 0.06527844
0.016168317 0.05994152 0.074025944 -0.10279118 -0.038590968 -0.040969137 -0.09183422 -0.037783135
-0.109062724 -0.13241558 -0.12186242 -0.0045481934 -0.09411356 -0.07024991 0.014866233 -0.017616488
00000000: 6b66 98bc 1a7d 06bd 8fc3 8cbd 5a55 e03c
00000010: 1bc2 6f3d 25a7 17bd 660d b539 a154 da3c
00000020: 2f4a 7ebc 6c0e 953c d6a9 7cbc fc37 453b
00000030: fe30 73bc a976 5cbd e87d 073d 2a47 b63d
00000040: b5a1 9c3d e186 9f3b 7880 5a3c 593b b83d
00000050: 86ec 863d 055b 7f3d 7850 4d3d a649 c93d
00000060: 084d 833d 9e55 e63b c9af b33d a4e8 db3b
00000070: 4a16 c43c f492 58b9 fbcc d63c 5b94 953d
00000080: 4621 a73d 7482 263d 02c5 a83d aae5 ad3d
00000090: ca19 a33b 3bcb 81bd 5ec8 c6bc 03dc 253d
000000a0: 221f 1c3c 4af6 1a3b 6276 513d af16 3abd
000000b0: e3a2 65bc 455a a03d d8b5 af3c 8d7d b23d
000000c0: 0d0a c2bc 9d6c 433d d518 793d eaee 003d
000000d0: ed08 15bb 0e22 05bd 10ad e1bb 6de4 9c3b
000000e0: 4b50 7b3d eea0 bebc c6d2 523d e20b a8bc
000000f0: f67b 873c aa8b 593d 5f97 73bd 3240 0b3d
00000100: 8821 96bd 7faa 21bd 4665 edbc 6ce0 af3c
00000110: 896d 0abc 0a2e 8b3b f72f 083d 8b47 953c
00000120: eb2c af3c 7bd7 92bd d67a 4bbd 60fa a5bd
00000130: 1724 53bd 0944 64bd 44e9 76bd 0832 8bbd
00000140: 671c 91bd 058a 3b3c 4990 13bd d8bc 563d
00000150: 6797 c0bc 5757 8f3b 016d e8bb ee21 55bd
00000160: a844 bfba d682 123d e081 c5bb e4f8 f1bc
00000170: c575 a03a 7066 d4bc 3ca9 41bd d04b a43c
00000180: c3c3 6b3d d0d0 203d 6cf1 92bb ad56 72bc
00000190: e3e8 393d ab42 62bd 8fb7 5a3c 9c66 893d
000001a0: f2c4 aebb 2d55 a93b d9f6 25bd 1abd 8abd
000001b0: 440c 013d dafd 753c bf6c a2bd 9916 04bd
000001c0: 8559 a1bc 84d9 5e3c cc99 5ebd 4244 543d
000001d0: f82e 283d ad8e 15bd ce42 163d 3167 72b9
000001e0: 65aa 763d 228c 933d 2756 ceba bfc8 52bd
000001f0: f741 e43c 54b2 c73c 8889 3a3d 74a7 e9bc
00000200: fd7e 1f3d 8b59 26bb b078 31bc 7ac8 923d
00000210: bf6c edbc 2197 983c 46da bbbb 3bb2 00bd
00000220: 7f53 84bd b3e3 1dbd 654c 9dbd 61a3 a7bd
00000230: e9a0 7ebd 48c6 8b3c b802 8cbd 473d 03bb
00000240: 5f10 963d 2642 673d b7f4 363d 3891 bf3d
00000250: b475 25bc bb1f b93d 1ed9 f63c 1a03 423d
00000260: 4738 c63d 7f4b 18bb 33e4 e4bc 4029 ae3d
00000270: 12bf 413d ef33 f73c 05f4 de3c 3844 263d
00000280: 24ed 52bc 8767 363d c8b7 61bc cbc7 a3bb
00000290: c2a2 dfb8 3606 013d be12 f8bc 8225 2c3d
000002a0: 866c 583d d716 8e3d 2b9e e23c d6bb 523d
000002b0: 17c9 52bd 9ceb df3c db41 49bc 9bc2 e53b
000002c0: 94a3 af3c 5a2e a63d e31e d33d 5bda 8c3d
000002d0: 7e0d 923d 7e9b 7f3d b8d5 21bd 9c3c 253d
000002e0: 96e9 4abc f6f3 8a3d 6f64 d23c b464 ffbb
000002f0: 48de 1d3c 6e0f 8a3d 86e6 963d bddb bd3d
00000300: 392d 973d 9ff7 bc3d 814d e33d 082f f83d
00000310: c699 353d 3954 a8bb fd1d bf3b a44b 82bd
00000320: e23c 83bd baf3 0ebc a3fc 54bd 1507 91bc
00000330: 707a 383d bf75 cbbc d435 c83c e6ac f43c
00000340: 1f19 5ebd d81e 4d3d 6f55 883d d7b4 c23c
00000350: fa37 dfbc e58f da3c 83b2 d9bb 7b64 04bd
00000360: a733 74bd 3188 fd3c 4d3d 3fbd f709 bdbd
00000370: 1490 ab3b 771e 72bd 2988 83bd e4ed 12bd
00000380: fa00 c5bd 8431 6cbd ccfa f9bb 080c 89bd
00000390: a568 9cbd a33a 8dbd 388e f03c 98fd 9a3a
000003a0: 5a9a 95bd 1cb2 683c 3349 26bd 8ad2 eb3c
000003b0: d8b0 42bd 7a1a 393d 16b7 1a3c b4b0 853d
000003c0: 6b73 843c 3d85 753d ea9a 973d 2f84 d2bd
000003d0: 9011 1ebd 41cf 27bd 9413 bcbd 7dc2 1abd
000003e0: 475c dfbd f397 07be 0193 f9bd 0309 95bb
000003f0: 9cbe c0bd 2fdf 8fbd 8091 733c 7450 90bc

bias f4 [16]
-0.07703445 0.10278511 -0.012277981 0.04565905 0.034178447 -0.15283799 -0.08694965 -0.1319705
0.0043738466 0.11220481 0.03390433 -0.06720146 0.06307728 -0.06354126 -0.04433098 0.020060223
00000000: 3dc4 9dbd 0081 d23d 9629 49bc fc04 3b3d
00000010: b3fe 0b3d 9081 1cbe a812 b2bd 4623 07be
00000020: 7c52 8f3b a3cb e53d 44df 0a3d eba0 89bd
00000030: a92e 813d ec21 82bd 6794 35bd 5655 a43c

weight f4 [16, 6400]
-0.0033518723 -0.0017497439 -0.0034352602 -0.007787862 -0.009639735 -0.007374212 -0.007606984 0.0016399089
0.0026613225 -0.009000861 -0.006566509 -0.006165571 -0.0031210212 -0.0041094455 -0.0032680084 0.009745753
-0.0039696344 0.00033482318 0.01318585 0.002516079 -0.008739137 0.0024948022 0.00076167367 -0.0023691056
-0.012291007 -0.006272623 -0.009007105 -0.005106373 -0.0079976935 0.0030922217 -0.00024287075 0.008631431
-0.006355309 0.0050237235 -0.00028329648 -0.0037960436 -0.000868084 0.002724399 0.008985966 0.013598796
-0.0020954506 -0.0018254003 -0.0015483645 -0.0031310795 -0.006066811 0.0010884012 -0.00401713 -0.0035644262
0.0036265135 0.009103615 -0.0054401895 -0.004539488 0.011051002 0.010264513 -0.007427891 -0.008022709
0.0045707184 -0.0019279202 -0.004199821 0.011222843 -0.009725204 0.0065842355 -0.0017976406 -0.008517037
-0.0044742427 0.008222183 0.0010431156 -0.0049101 -0.009145604 0.0032395083 0.0005652944 -0.007139086
0.0015728901 0.010798516 -0.0034374106 0.0050602304 0.0077954847 -0.004107851 -0.00812615 0.0032117784
0.010054061 -0.0042210254 0.0041653086 0.008199167 -0.00065792864 0.008825238 0.010356209 0.006380359
0.00026193552 -0.008608676 0.0059475047 -0.0056878566 0.0028301324 0.011499332 -0.0061084465 0.009591756
0.0017362603 0.009852617 -0.002065648 0.012562209 -0.0051783905 -0.0067196907 -3.6065197e-05 0.010307717
0.0067097647 -0.0076500676 0.00564041 -0.0034437103 -0.0046491115 -0.0070728525 -0.004164655 0.004482283
0.0035445096 0.010544853 -0.0055933045 0.003842552 -0.0003413985 0.007559859 -0.004261864 0.002796868
0.011577716 0.00033865913 -0.0084363455 0.002728504 0.0054026255 0.00593304 0.00813913 -0.0076489686
0.0020460673 -0.008792304 -0.0007436152 0.0007496506 0.009311554 0.005431148 0.006357947 -0.006426897
-0.0007052272 0.0062620016 -0.0042699156 -0.0001642091 -0.007969665 0.0041459054 -0.0070495033 -0.00069169834
-0.005688142 -0.009606778 0.0017980676 -0.0009834807 -0.009117662 0.0041922433 0.0071494267 -0.00684179
0.0062549002 0.01023502 0.00091433537 0.0018730195 -0.0024106787 0.0033481 0.005320976 -0.0026401307
0.0075294394 -0.003939557 0.008561762 0.0054508313 0.003528657 0.0015918264 -0.003039894 0.0056135603
0.0056901146 -0.0019995784 0.00588113 0.000801136 0.005205735 -0.0067588114 0.010087886 0.008658929
-0.0015469738 -0.0062642186 -0.0028443707 -0.004505371 0.0027763844 -0.00318264 0.0022397435 0.002301536
-0.009625087 0.006623824 0.00013695467 -0.008981767 0.0026456797 -0.0037429752 -0.0039368197 -0.00036588675
0.0003801025 0.008401575 -0.0021550818 -0.0016358817 -0.0046231947 0.0022292316 -0.0038780984 0.013206613
-0.009383171 -0.0033358166 -0.005389668 0.006237664 -0.0014821081 0.0019014952 -0.0061098887 0.006948682
0.004908783 -0.00076379144 0.0018391074 0.008468358 0.0004184796 0.0026109212 0.0068309857 0.010231056
0.008727664 -0.0020531816 -0.007524285 5.402681e-05 0.007434573 -0.0001557884 -0.0054974225 0.00037172984
-0.005743654 -0.0062894104 -0.0026612275 0.00791661 -0.0055690524 -0.007845585 -0.010818641 0.0002133527
-0.0067922 -0.005516188 -0.003911733 0.008355109 0.004593238 0.010313723 -0.00074826984 0.004583407
0.0077429395 -0.002779563 0.004398214 0.003343179 -0.009136138 -0.008619995 0.0017347733 -0.0016971293
0.0028541472 -0.001915285 0.0022371889 -0.0065353834 -0.010759414 -0.0077878595 -0.008615311 0.0029753787
00000000: 16ab 5bbb aa57 e5ba 1a22 61bb 5231 ffbb
00000010: fbef 1dbc 60a3 f1bb 0244 f9bb 36f2 d63a
00000020: 9569 2e3b 5978 13bc df2b d7bb 8f08 cabb
00000030: 0c8a 4cbb 87a8 86bb 152c 56bb a7ac 1f3c
00000040: b513 82bb 358b af39 7709 583c cde4 243b
00000050: 992e 0fbc d67f 233b 0eab 473a ff42 1bbb
00000060: 3860 49bc 938a cdbb 8992 13bc 5d53 a7bb
00000070: c208 03bc dfa6 4a3b 1fab 7eb9 d86a 0d3c
00000080: 3240 d0bb 0c9e a43b 6987 94b9 0bc7 78bb
00000090: 2290 63ba d58b 323b e039 133c 7ccd 5e3c
000000a0: d453 09bb 4542 efba 7ef2 caba cc32 4dbb
000000b0: 19cc c6bb afa8 8e3a 21a2 83bb 2699 69bb
000000c0: cdaa 6d3b 5427 153c 9e43 b2bb fcbf 94bb
000000d0: 430f 353c 7d2c 283c aa65 f3bb ae71 03bc
000000e0: f7c5 953b 44b2 fcba a79e 89bb 04e0 373c
000000f0: 7656 1fbc 92c0 d73b cf9e ebba 0b8b 0bbc
00000100: ab9c 92bb 56b6 063c 27b9 883a e7e4 a0bb
00000110: 72d7 15bc ee4d 543b 4430 143a feee e9bb
00000120: 6f29 ce3a 42ec 303c 2e46 61bb 4ad0 a53b
00000130: 4471 ff3b 279b 86bb 8b23 05bc b37c 523b
00000140: cab9 243c 8750 8abb 247d 883b cd55 063c
00000150: d878 2cba bb97 103c 17ad 293c 5512 d13b
00000160: 6454 8939 670b 0dbc 49e3 c23b 3361 babb
00000170: be79 393b b267 3c3c 5d29 c8bb be26 1d3c
00000180: 3a93 e33a df6c 213c d35f 07bb b9d1 4d3c
00000190: 7daf a9bb da30 dcbb b644 17b8 b3e1 283c
000001a0: 96dd db3b 6bad fabb 30d3 b83b dfaf 61bb
000001b0: 9357 98bb 63c3 e7bb a977 88bb 1de0 923b
000001c0: 014b 683b 52c4 2c3c 0a48 b7bb 53d3 7b3b
000001d0: bbfd b2b9 b2b8 f73b 1ba7 8bbb a94b 373b
000001e0: 76b0 3d3c 0f8e b139 9938 0abc b3d0 323b
000001f0: 8208 b13b f269 c23b fc59 053c 33a4 fabb
00000200: 5017 063b 990d 10bc 2cef 42ba 3384 443a
00000210: 7d8f 183c c6f7 b13b 5356 d03b b898 d2bb
00000220: ffde 38ba 7a31 cd3b a6ea 8bbb 8b2f 2cb9
00000230: 3393 02bc 60da 873b 85ff e6bb 1753 35ba
00000240: 9863 babb bf65 1dbc 23ad eb3a 23e8 80ba
00000250: 3f62 15bc 165f 893b bd45 ea3b 1831 e0bb
00000260: e8f5 cc3b c9b0 273c 02b0 6f3a 1b80 f53a
00000270: 7afc 1dbb cc6b 5b3b 955b ae3b 0b06 2dbb
00000280: 84b9 f63b 6617 81bb a246 0c3c e39c b23b
00000290: 0a41 673b d5a4 d03a f538 47bb f5f1 b73b
000002a0: 2474 ba3b 5c0b 03bb 7fb6 c03b 5403 523a
000002b0: df94 aa3b 0579 ddbb a947 253c 2ede 0d3c
000002c0: d4c3 caba 1344 cdbb 9f68 3abb cba1 93bb
000002d0: 00f4 353b d793 50bb a9c8 123b 5ed5 163b
000002e0: 8ab2 1dbc aa0c d93b 7d9b 0f39 4328 13bc
000002f0: 2463 2d3b b44c 75bb 7000 81bb 7dd4 bfb9
00000300: 7e48 c739 c2a6 093c 463c 0dbb 156b d6ba
00000310: 2b7e 97bb 4d18 123b b227 7ebb 8d60 583c
00000320: dfbb 19bc b79d 5abb d09b b0bb 5165 cc3b
00000330: 4c43 c2ba 973b f93a 7635 c8bb c5b1 e33b
00000340: dbd9 a03b 2d39 48ba 340e f13a debe 0a3c
00000350: 6267 db39 fd1b 2b3b 76d6 df3b 29a0 273c
00000360: 7afe 0e3c ac8e 06bb 478e f6bb d89a 6238
00000370: b89d f33b 215b 23b9 b923 b4bb bce4 c239
00000380: 4335 bcbb 6617 cebb fd67 2ebb abb4 013c
00000390: 997c b6bb c58a 00bc ab40 31bc 6eb7 5f39
000003a0: 1a91 debb 24c1 b4bb ff2d 80bb dee3 083c
000003b0: df82 963b e4fa 283c 8a27 44ba 6830 963b
000003c0: 7cb8 fd3b 5429 36bb e51e 903b 3c19 5b3b
000003d0: bdaf 15bc e13a 0dbc 5561 e33a 3672 deba
000003e0: a50c 3b3b 4d0a fbba cd9d 123b c526 d6bb
000003f0: 4148 30bc 4d31 ffbb 3c27 0dbc 92fe 423b

bias f4 [16]
0.0014317919 -0.0020112484 0.011698282 -0.0015985505 0.009050051 -0.00045127634 0.009740262 0.037711017
0.0054636546 -0.024609813 -0.01050977 -0.011620826 -0.017905725 0.0071138986 0.01741507 0.02999918
00000000: f7aa bb3a 26cf 03bb 27aa 3f3c 7486 d1ba
00000010: aa46 143c 4999 ecb9 9f95 1f3c de76 1a3d
00000020: 7508 b33b 859a c9bc 2c31 2cbc 4765 3ebc
00000030: 07af 92bc b51b e93b 0daa 8e3c d7c0 f53c

weight f4 [2, 16]
-0.18071948 0.09565659 -0.18458003 -0.078966856 0.07809029 0.21439405 -0.2795122 -0.26006725
0.39425993 0.24573766 0.1871954 0.03590732 0.19444214 0.019538756 -0.18850042 -0.25810367
0.014987447 0.017193228 0.01332455 -0.06265824 -0.23597395 -0.12410572 0.13647501 0.23953551
-0.21532172 -0.18295564 0.07453008 -0.28456366 -0.2635194 -0.26364335 -0.038849793 0.24360807
00000000: 870e 39be 9ae7 c33d 8c02 3dbe 60b9 a1bd
00000010: cded 9f3d 1d8a 5b3e 391c 8fbe 8927 85be
00000020: 70dc c93e a7a2 7b3e 27b0 3f3e 8e13 133d
00000030: d71b 473e be0f a03c 4106 41be 2a26 84be
00000040: e98d 753c d0d8 8c3c 374f 5a3c f752 80bd
00000050: 28a3 71be 242b febd 1bc0 0b3e cc48 753e
00000060: 4c7d 5cbe b958 3bbe 3aa3 983d 54b2 91be
00000070: 04ec 86be 43fc 86be f620 1fbd 6574 793e

bias f4 [2]
-0.1494864 0.23301065
00000000: f612 19be 589a 6e3e
